LRP/model_weights_epoch_10.pt (torch, 50875 bytes, 74 tensors)

pos_embed f4 [1, 65, 8]
000000 7e 03 ce bc 57 36 2f be 8c 4a 8c bd fe 99 2a bb
       -0.02514815 -0.17110573 -0.06850156 -0.0026031728
000010 aa a1 15 bd 24 bb 7b 3d 02 6d e0 bc 66 06 c7 3d
       -0.036531128 0.061457768 -0.027395729 0.09718017
000020 df 87 c5 3e ea d2 1c ba ed aa f5 bd 1a 8f c3 3b
       0.38580224 -0.00059823564 -0.11995492 0.005967987
000030 98 d9 1a bf af 3b 0a 3f 00 2b a1 be 3c 1b a9 bd
       -0.6048827 0.5399732 -0.3147812 -0.08257148
000040 d4 12 d4 3e 38 c2 ea bb 79 02 6d bc 02 cf a0 3d
       0.41420615 -0.007164266 -0.014465922 0.078519836
000050 41 ba 32 bf a8 a0 ba 3e 26 c9 4e be fd e4 17 be
       -0.6981545 0.36450696 -0.2019392 -0.14833446
000060 b8 83 1d 3f d8 8c 09 bc 04 e1 e6 3d df 71 4a 3e
       0.6152911 -0.008395396 0.11273387 0.19770001
000070 0c 34 54 bf 68 6b 11 3e af e5 6e be 68 36 46 be
       -0.8289192 0.14201128 -0.23329805 -0.19356692
000080 cf 55 17 3f fd 03 15 be 83 5e 96 3d 6e 1e 21 3e
       0.5911531 -0.14552303 0.073422454 0.15734264
000090 d8 81 17 bf e8 dd 63 3e 0a 1f 59 be 3d b7 d2 bd
       -0.591825 0.2225262 -0.21203247 -0.10288856
0000a0 9e 04 68 3f 74 a8 2a be 90 65 7e 3d 74 81 3a 3e
       0.90632045 -0.16665822 0.062108576 0.18213445
0000b0 59 43 d8 be f6 5f 7d 3d 88 4e 9b be 8f 19 49 be
       -0.42238882 0.061859094 -0.30333352 -0.19638656
0000c0 3a f5 18 3f b4 40 5c be b8 8a 6e 3d fe b8 86 3e
       0.59749186 -0.21509057 0.05823776 0.26313013
0000d0 29 f4 00 bf 00 48 00 3e f5 ef 2c be c6 84 1e be
       -0.5037256 0.12527466 -0.16888411 -0.15480337
0000e0 84 38 13 3f 1c a3 7c 3b d9 7c 22 3d 8b 68 08 3e
       0.5750811 0.003854937 0.039669845 0.1332113
0000f0 35 e0 df be 16 9a 75 3e ea 00 97 be b3 7d 8a be
       -0.43725744 0.2398456 -0.29492885 -0.27049026
000100 5b bc b9 3e 4c 9a 05 3d ce 22 30 3e 9b ba eb bc
       0.36276516 0.032617852 0.17200777 -0.028775504
000110 92 75 11 bf 3e 28 a7 3e c8 6e 65 be 6c ef 40 be
       -0.56820023 0.3264789 -0.22405541 -0.18841332
000120 9c 6f 14 3e 96 c8 96 be 98 a7 a5 bc d1 e8 f2 3e
       0.144957 -0.2944991 -0.020221516 0.4744325
000130 f0 5e 62 3d fe cf 27 be 7d db 47 3e 6d ae 98 be
       0.05526632 -0.16387936 0.19517322 -0.29820576
000140 db ae b1 3e 21 56 da be ae 35 e6 3d b9 16 f9 3d
       0.34703717 -0.42643836 0.11240707 0.12162537
000150 73 91 ac be d9 16 81 3e 9f 17 b5 bd 17 2d ae bd
       -0.3370472 0.25212744 -0.08842396 -0.08504694
000160 ef 89 b8 3e 69 2d 1a be 19 e3 0a 3e 1e b9 46 bd
       0.36042735 -0.15056385 0.13563193 -0.048516385
000170 d5 eb b6 be a3 b9 85 3e 9c a1 16 be fa fd bd bd
       -0.357268 0.26118192 -0.14710087 -0.09276958
000180 4b 3d 9b 3e af b7 5e be 42 55 89 3d 1a 21 29 3e
       0.303202 -0.21749757 0.06705715 0.16516533
000190 06 db 04 bf 28 cf 38 3e 0c 11 e1 bd 1f 80 f7 3c
       -0.51896703 0.18047774 -0.109895796 0.03021246
0001a0 52 cc fe 3e c2 2f 31 bc 75 29 41 3c 49 1b b2 bd
       0.4976526 -0.010814609 0.011789669 -0.086966105
0001b0 db 88 2e be d5 47 ea 3d 85 c2 42 be c8 84 31 be
       -0.17044394 0.11439482 -0.19019516 -0.17335808
0001c0 ce 42 d1 3e 49 e2 98 be ed 3e 98 3d 2f f8 23 3e
       0.4087128 -0.29860142 0.07433877 0.16012643
0001d0 58 69 00 bf 8e df 16 3e d7 eb 8a be 1b 02 e1 3d
       -0.5016074 0.14733717 -0.27133057 0.1098673
0001e0 cf d3 ee 3e 15 8e ad bc 2e e3 a6 3d ae 8c ae bd
       0.46645972 -0.021185914 0.081488 -0.08522926
0001f0 76 8d 28 be 92 8f 41 3e 19 5b b7 be 33 e0 35 be
       -0.16460213 0.18902424 -0.3581169 -0.17761306
000200 b3 77 e5 3e cc 1e bc bd 07 ea d9 3d f7 10 80 3b
       0.44817886 -0.091855615 0.1064034 0.0039082724
000210 dc 35 9e be 22 f9 95 3e bc 02 9a be 9c 4a 19 be
       -0.30900466 0.29291636 -0.3008021 -0.14969867
000220 1c 17 b5 3c 13 db 07 be fe 1b da 3c 56 66 c3 3e
       0.022105746 -0.13267164 0.026624676 0.38164014
000230 1e fd 97 bd f9 f6 47 be c9 2b 00 bc 5e d2 68 3c
       -0.07421325 -0.19527806 -0.007822939 0.014210312
000240 aa 08 7d 3e 5f 5f b0 bc c0 8a 2e 3e d1 4f ac 3c
       0.24710336 -0.021529851 0.17045116 0.021034153
000250 a2 34 c7 bd 2d 69 2c 3e 3e 66 87 be 7c 00 2c be
       -0.09726836 0.16836996 -0.26445192 -0.1679706
000260 e7 df 48 3e a8 f6 29 3c 22 13 53 bd 7f 76 79 be
       0.19616662 0.010373749 -0.05153192 -0.24361609
000270 89 34 53 3e 1a 57 1c 3c 69 6c a0 bd b4 9a 59 bd
       0.2062551 0.009542251 -0.078331776 -0.053126052
000280 9c 3f a7 3e 4c 4b f7 3d b7 d7 27 bd 23 f9 b9 be
       0.32665718 0.120749086 -0.040977206 -0.3632289
000290 f8 53 5d 3c 3f 3e 74 3e 1b 74 6f 3d e1 52 59 be
       0.013508789 0.2385187 0.058460336 -0.21223022
0002a0 af c7 2d 3e 62 66 ee 3d cb 42 09 bd 3a a8 cd be
       0.16970704 0.11640622 -0.033510964 -0.4016741
0002b0 d1 f4 33 3d 8f 34 71 3e 50 f1 f8 3d 55 6d 28 be
       0.043934647 0.23555206 0.12155402 -0.16447957
0002c0 c4 d1 80 3e d7 42 83 3d 65 85 e8 3b 8a 00 61 be
       0.25160038 0.06409233 0.00709598 -0.21972862
0002d0 45 69 40 bd 8b 8a ca 3d 37 6b 65 bd be c8 5c bd
       -0.046975393 0.09889706 -0.05601045 -0.05390238
0002e0 88 f3 7c 3d 03 94 4f 3c 3c d9 50 bd 9a 99 cd bd
       0.061755687 0.012669566 -0.05098842 -0.10039063
0002f0 3c 4c 7d 3e 30 ab 30 be b3 20 7f be 4f ce 6e 3e
       0.24736112 -0.17252803 -0.24914818 0.23320888
000300 96 ac ef 3e ee f0 93 be 86 bf d8 bc 38 46 d6 3e
       0.4681136 -0.28894752 -0.026458513 0.41850448
000310 64 79 b8 3d 2f ae 58 be 0f b5 11 3e 3a e6 a1 be
       0.090075284 -0.21160196 0.14229225 -0.3162096
000320 8f 9b 67 be 27 02 83 3e c7 da 21 3c 43 50 64 3d
       -0.22617935 0.2558758 0.009878821 0.055740606
000330 e1 33 01 3e d7 e6 cc be fc 8b fa bc 08 2b 92 3e
       0.12617446 -0.40019867 -0.030584328 0.28548455
000340 96 e5 23 bd 19 86 ae 3d 3b f3 62 3d e9 00 e2 bd
       -0.040013872 0.08521671 0.055407744 -0.1103533
000350 59 80 26 3e 6f 17 80 bc ad a1 9b bd cb 3b 36 3c
       0.16259898 -0.015636174 -0.075991966 0.011122654
000360 cc a5 bc 3d a0 c2 b4 3d 2a 88 60 3d f9 3e dd be
       0.09211311 0.08826184 0.054817356 -0.43212107
000370 5a 88 5f 3e 22 14 ab 3d 5f 34 8b 3d ff f9 69 bd
       0.21829358 0.083534494 0.06797098 -0.05712318
000380 70 75 86 3c ff bd 9d 3d 49 84 ce 3d 85 76 0d bf
       0.01641342 0.077022545 0.10083825 -0.5525897
000390 0a ef d7 3d 22 54 a0 3e 3e 3a 3e 3e ec 51 1a be
       0.1054364 0.31314188 0.18576905 -0.15070313
0003a0 10 2b 42 3e ff 72 29 3e 58 f6 17 bc 04 24 fb be
       0.1896174 0.16547774 -0.0092750415 -0.49050915
0003b0 e8 92 ad 3d 97 73 81 3e 79 10 4b 3e 83 66 2e be
       0.08475286 0.252835 0.19830503 -0.17031293
0003c0 c6 fe 4a 3e 98 12 fb 3d b4 66 b3 3c 4d a2 ec be
       0.19823751 0.12259406 0.021899559 -0.46217576
0003d0 71 a4 d6 3d df be a6 3d 61 34 82 3d 8c ac ae bd
       0.104805835 0.081418745 0.06357647 -0.085290045
0003e0 b7 f6 c7 3d 5f a1 b3 3d 23 05 4d bc a3 c4 58 be
       0.09763854 0.087710135 -0.012513432 -0.21168761
0003f0 1f 75 20 3e f1 0c e0 bd 19 4b e4 bd a9 af 47 3e
       0.15669678 -0.109399684 -0.11147136 0.19500603

cls_token f4 [1, 1, 8]
000000 a4 63 32 bd 64 6f ec bd b3 5e 68 bd 75 3e 54 3d
       -0.043552056 -0.115446836 -0.056730937 0.051817376
000010 66 8e 44 bd 74 53 ed 3d 11 75 0a ba 0c 7a 7d 3d
       -0.047987364 0.11588183 -0.00052817265 0.06188397

patch_embed.proj.weight f4 [8, 3, 4, 4]
000000 d9 9c c9 bd 9f 69 aa bd f3 57 9e 3c 84 4c 5a 3e
       -0.098443694 -0.08320927 0.019329047 0.21318251
000010 43 9c 28 be 10 af 36 be 28 86 d7 3d 83 30 16 bc
       -0.16465859 -0.17840219 0.10523635 -0.0091668395
000020 22 92 83 be 61 e9 25 be 0e 1d 41 bd 2e 0b 7e 3b
       -0.25697428 -0.16202308 -0.04714685 0.0038763988
000030 5d 06 20 be ed 45 e7 bd 85 93 a2 3d a8 2c 84 3d
       -0.15627427 -0.11292634 0.07938293 0.0645383
000040 73 62 bb bd 40 a4 7d bd 74 2c ac 3d 0d 46 a6 3e
       -0.09149637 -0.06192422 0.08406916 0.3247532
000050 df 6b 29 3d 4d 52 e3 bd 79 9e 72 3e b2 ef b0 3e
       0.04136264 -0.11099682 0.23693265 0.34557873
000060 c0 43 ed bd 8f a7 1f 3d 81 09 61 3e 05 32 a7 3e
       -0.11585188 0.038978156 0.21976282 0.3265535
000070 91 47 91 bd 9e 92 41 bd 27 89 ec 3d 0e eb 97 3b
       -0.07093728 -0.047258966 0.11549597 0.004636175
000080 17 d1 c2 bd db 65 ed bd 84 9f 08 3e 4a ce 96 3e
       -0.09512537 -0.11591693 0.133421 0.2945426
000090 97 bb 91 be df bd 24 be 99 a7 41 3d d8 bc 82 3e
       -0.28463432 -0.16088055 0.047278974 0.255347
0000a0 a8 75 6a be f6 80 02 bd c7 db 02 3e 42 7b b2 3e
       -0.22896445 -0.031861268 0.12779151 0.34859663
0000b0 49 94 8d be 74 b1 31 be 23 47 4d 3d 56 38 82 3d
       -0.27652195 -0.17352849 0.05011667 0.063584015
0000c0 b1 c7 24 be fc 42 4c be 44 ec 02 bc 35 6c 2f 3d
       -0.16091801 -0.19947428 -0.0079909 0.042827804
0000d0 74 6c 6b be e3 9c 0c be 8f 09 47 be 32 33 b2 3d
       -0.2299059 -0.13731723 -0.1943724 0.08701171
0000e0 93 c4 9e bd 12 65 41 be 83 e3 38 bd bb b9 07 be
       -0.07752337 -0.18886212 -0.045138847 -0.13254444
0000f0 e9 da 41 3c 7c ac 29 3d 71 b7 72 bd 81 8e 97 3d
       0.011831977 0.04142426 -0.059256975 0.07400227
000100 80 c1 e9 b9 43 b6 f8 3c 59 c4 15 be 76 e9 9d bc
       -0.00044585392 0.030360347 -0.14625682 -0.019276362
000110 d0 21 c3 bb fb 79 15 be 06 c1 f5 bd 14 6f c5 bc
       -0.0059549585 -0.14597313 -0.11999707 -0.024100818
000120 37 e4 5d be ea 5f d5 bc e6 e4 2c 3d c9 92 21 3c
       -0.21669088 -0.026046712 0.042210482 0.009861656
000130 07 93 82 be 45 e4 2b be 3a 93 10 bd 86 b9 02 be
       -0.25502798 -0.16786297 -0.035296656 -0.12766084
000140 4e 16 35 3b 0f a1 0f 3e 33 da 94 3e ad 76 84 3e
       0.0027631703 0.14026283 0.29072723 0.25871792
000150 2a 98 09 3e c7 b6 a5 3e 2e c7 a1 3d 76 d4 fe 3d
       0.13436952 0.3236601 0.07899319 0.124428675
000160 32 da b7 bc 9d 6e 3a 3e a1 8d 49 3d bd 03 68 3d
       -0.02244291 0.18206258 0.049207333 0.05664419
000170 96 91 27 3e d0 ea ac 3d db f2 ad 3d 66 53 1b 3e
       0.1636413 0.084432244 0.08493587 0.15168533
000180 2c 24 0b 3e a9 d9 dd bb 60 fe 0c 3d 45 7e 19 3d
       0.13588017 -0.006770332 0.03442228 0.037473936
000190 07 f5 6f bd cb 17 fa 3c 00 f2 37 be 21 41 59 be
       -0.058583286 0.030528923 -0.1796341 -0.21216251
0001a0 8f e7 9f bc d3 cb 9c bd fd 11 dc 3b b2 10 7b be
       -0.019519595 -0.07656064 0.0067160116 -0.24518088
0001b0 48 3b c2 bd ce 5b aa bd 56 15 9b bd 21 d6 24 be
       -0.09483963 -0.083182916 -0.07572429 -0.16097309
0001c0 cb 4d 4c 3e f6 5e 08 3e 05 14 b2 bd 3c 7e 1c be
       0.1995155 0.13317475 -0.08695225 -0.1528253
0001d0 a3 9a 8e 3e 0a 0b 4e 3e 81 ce 03 3e 1b 03 71 3c
       0.27852353 0.20121399 0.12871744 0.014710213
0001e0 6a 82 a0 3e 2c 3f b5 3d 5f 40 1d bc fb d8 1b 3d
       0.31349498 0.0884994 -0.009597867 0.038048726
0001f0 50 00 49 3e 8e f7 28 3d 77 be ce 3d 3b b2 28 be
       0.19629025 0.04125171 0.10094922 -0.1647424
000200 a8 59 2f 3e 6d 14 4b bd d9 08 92 bd 0b fe 8e bb
       0.17124045 -0.049580026 -0.07130594 -0.0043637804
000210 3e c4 78 3d 7e 9f 27 3e e5 df 10 be 67 63 88 be
       0.060734026 0.16369435 -0.14147909 -0.26638338
000220 d4 e4 a5 3e ed ba f8 3d 73 c1 91 3d fe 8a 85 be
       0.32401145 0.12145028 0.07116976 -0.26082605
000230 ec 17 64 3e dd 88 12 be 60 f6 be bd 35 16 87 be
       0.2227475 -0.14310022 -0.09324336 -0.2638413
000240 af 69 9e 3d 52 1f 20 3d aa 03 d0 bd 1d bc 91 3c
       0.07735001 0.03909237 -0.10156949 0.017789895
000250 ea 7e 96 bd fc d3 cf 3d 9f 1c 06 be ba cb 1b be
       -0.07348426 0.10147855 -0.13096856 -0.15214434
000260 38 8d 67 3d b3 2b 34 3e 0d 4f 14 3d f1 21 fb 3d
       0.05653116 0.17594795 0.0362082 0.12262333
000270 38 a6 24 3e e5 a7 c1 3d 1b ed e4 3d 18 3d f6 3c
       0.16079032 0.094558515 0.11178037 0.030058429
000280 ef 96 fc 3d d5 8a 52 3e 92 90 87 3c d8 a4 f3 3c
       0.12333476 0.20560773 0.016548429 0.02974169
000290 51 1c 25 bd 21 a6 b4 3d fd 17 87 3d 1a 2d 04 bb
       -0.040310208 0.08820749 0.06596372 -0.0020168484
0002a0 03 9c df 3d 97 f6 da 3d c8 8e b0 bd 33 28 24 bd
       0.10918429 0.106915645 -0.08620983 -0.0400774
0002b0 1c 45 d8 3d 17 a9 d0 3d aa 66 cb bc 10 8d 57 3e
       0.105600566 0.10188501 -0.024829227 0.21049905
0002c0 bc 6e 1c be 80 02 19 be 9c 90 15 be e7 cc b8 3c
       -0.15276617 -0.1494236 -0.14605945 0.022558643
0002d0 60 7a dd bc 08 70 9c bc 5a f5 1a be e2 c3 ef bb
       -0.027035892 -0.01909639 -0.15132657 -0.007317052
0002e0 79 db ce bd d4 2a a6 bd 50 18 4d be e8 75 d6 bd
       -0.10100455 -0.081136376 -0.20028806 -0.104717076
0002f0 27 a4 85 be c9 a1 28 3c 73 f3 44 be ee 23 00 be
       -0.261018 0.010292479 -0.19233494 -0.12513706
000300 cc b9 2f bd 31 89 c7 bd 45 ab 0e be 88 b7 57 be
       -0.0429018 -0.09742964 -0.13932522 -0.21066105
000310 a6 49 1e bd 13 90 59 bd b0 d8 8a 3d 1b f7 a0 bd
       -0.038644455 -0.053115916 0.06779611 -0.07859632
000320 fd c7 6f 3d ec f1 0b 3e ae 7e 06 3e c6 ec 0c 3d
       0.058540333 0.13666505 0.13134262 0.034405492
000330 8f 28 2d 3e 9d 40 ad 3e 7f f4 99 3e fe 94 a0 3e
       0.16910003 0.3383836 0.30069348 0.31363672
000340 5d 56 7a be 75 3c 8d be b7 e3 3c be f8 03 b6 bd
       -0.24447007 -0.27585188 -0.18446241 -0.08887476
000350 f0 22 82 be 62 1d 73 be 6b 6e 05 be 97 ce 02 be
       -0.2541728 -0.23741677 -0.13030402 -0.1277412
000360 e7 b0 ab bd e5 28 3f be 47 a8 19 bd 42 d0 10 be
       -0.08383351 -0.18667944 -0.037513997 -0.14141944
000370 37 e2 45 3e a2 5c 89 3e 50 d2 74 3e ee 75 23 3e
       0.19324575 0.26828486 0.23908353 0.15962955
000380 dd 11 c4 bd 8a ed b7 bd 9f c4 3c be 6e 1c 00 be
       -0.0957372 -0.08980854 -0.1843438 -0.12510845
000390 05 03 e7 bd bd 80 83 bd 11 f1 be 3d ef 3f 82 bd
       -0.11279873 -0.06421039 0.093233235 -0.063598506
0003a0 1c 9b b2 3d 48 6d 52 bc 28 f7 32 3e c6 d1 b6 bd
       0.08720991 -0.0128434375 0.17477095 -0.0892673
0003b0 3e 03 a4 3d ad 44 94 3e 5f 67 b2 3e e5 92 44 3d
       0.08008431 0.28958645 0.3484449 0.047991652
0003c0 ce 94 5d bc 2b 32 27 3d 80 20 8b be b0 33 61 bc
       -0.013524247 0.04081933 -0.27173233 -0.013745233
0003d0 9e c6 35 be 3d 5c f1 3d a1 5d f7 bc 6e 20 0a be
       -0.17751548 0.11785171 -0.030196013 -0.13488933
0003e0 84 61 46 3d 82 f6 c4 bb 37 c4 16 be 05 9d 31 bd
       0.048432842 -0.0060108313 -0.14723288 -0.043362636
0003f0 d7 db 2b 3d ee 14 b8 3c 78 56 e2 3d 6c 82 ab bd
       0.041957702 0.022470918 0.11051649 -0.083744854

patch_embed.proj.bias f4 [8]
000000 9f 14 a0 3d e2 4e 9a 3d 2a d2 81 3d cc 54 32 bc
       0.07816433 0.07534577 0.06338914 -0.010884475
000010 fe 8f 23 be b2 83 be 3d 29 02 91 be d2 bc 80 3d
       -0.15972897 0.09302463 -0.2832196 0.062860146

blocks.0.norm1.weight f4 [8]
000000 71 64 96 3f 24 b8 81 3f 12 04 99 3f 1b 53 a1 3f
       1.1749402 1.013432 1.1954367 1.2603487
000010 4b b4 7a 3f 6d 40 97 3f df 0e 91 3f 22 d2 8d 3f
       0.97931355 1.1816536 1.1332663 1.1079752

blocks.0.norm1.bias f4 [8]
000000 a6 3f 33 bd 48 fb 78 3d 12 37 82 bd c2 a3 7d bd
       -0.04376187 0.060786515 -0.0635816 -0.06192375
000010 51 e0 66 3d 81 da 9c 3d fd be 41 bd ab bd a5 3d
       0.05636627 0.07658864 -0.04730128 0.08092817

blocks.0.attn.qkv.weight f4 [24, 8]
000000 37 ac b1 3e 23 c7 0b be 14 dd ce 3e b7 13 bd 3c
       0.34701702 -0.13650183 0.40403044 0.02308069
000010 d7 46 78 be f8 40 b6 be dd 21 a6 3e 13 8b fa bb
       -0.24245773 -0.35596442 0.3244771 -0.0076459735
000020 a6 6c 29 3e fd ed 1b bd 9d 61 ae 3e 23 04 fa 3d
       0.16545352 -0.03806876 0.34058848 0.1220782
000030 ad be b6 bc 1c 9b c5 be df 0c 5b 3e d8 2f 2f bc
       -0.022307718 -0.38594902 0.21391629 -0.010692559
000040 a5 fe 03 be 0a d2 59 bd 02 ce f3 bd 3e 16 d9 3d
       -0.12890108 -0.053178824 -0.11904527 0.105999455
000050 03 23 bf bd 6e d7 a2 3e e5 43 bc bd e5 0d f6 3c
       -0.0933285 0.31804985 -0.09192637 0.030035922
000060 77 ea 58 3d d6 00 15 3d 3f 34 99 3e 9b f9 b3 3d
       0.052957978 0.03637775 0.29922673 0.08787843
000070 e9 d3 c6 3d 6a 1e cd be 6a 40 96 3d d8 4a 19 bd
       0.097083874 -0.40062267 0.07336505 -0.037424892
000080 65 f4 c8 3e d1 23 94 3d 82 bc a1 3e 79 d5 da 3d
       0.39248958 0.07233394 0.31589133 0.10685248
000090 f2 7f 0f 3e 15 a3 35 be 3a 53 c4 bd bb 00 87 be
       0.14013651 -0.17737992 -0.09586187 -0.26367745
0000a0 18 ce b7 3e f1 6f b8 3d cb 1f 97 3e 12 ae 22 3d
       0.35899425 0.09005726 0.29516444 0.039716788
0000b0 1d 20 6a 3e 5c a9 61 be 24 25 ae bd 74 99 b2 be
       0.22863813 -0.22037262 -0.08503178 -0.348827
0000c0 19 8c c2 3e f5 18 97 3d 2a dc 74 3e b1 a8 5d be
       0.3799751 0.07377807 0.23912111 -0.21646382
0000d0 c0 89 18 3e 3c f3 a1 bd d7 92 db bd 77 52 51 be
       0.14896297 -0.079077214 -0.10721367 -0.20441614
0000e0 7e 00 d1 be 25 a9 5a bd 07 cd 80 be 0d f5 25 3e
       -0.40820688 -0.053383965 -0.25156423 0.1620676
0000f0 14 11 ff bd 01 c0 9a 3d 59 78 d8 3d a2 65 5b 3e
       -0.12454429 0.07556153 0.105698295 0.21425489
000100 b8 40 af be 4f f0 b7 be 89 44 61 3d 77 94 a4 be
       -0.34229064 -0.35925528 0.054997 -0.3214452
000110 f5 93 b4 3e 75 89 48 3e 09 ab 92 3e a0 9d 3e be
       0.35269132 0.19583686 0.28646114 -0.18614817
000120 25 71 cb be e5 32 fd bd 90 96 85 3d 68 1a 47 be
       -0.3973476 -0.12363223 0.06522858 -0.19443667
000130 ab fb 93 3e bd 0c 13 3e cf ae 3f 3e c8 fb 17 be
       0.28902945 0.14360328 0.18719028 -0.1484214
000140 e3 09 aa 3e 7a d9 50 3d e8 30 03 be 73 3f 84 3e
       0.33210668 0.05098865 -0.12811625 0.25829658
000150 a1 34 81 bd f5 01 2a be 3b 7d 32 be 77 50 01 3e
       -0.06308866 -0.16602309 -0.17430584 0.12628351
000160 ba dd ea be bc 57 00 3d fa ab cc 3d 07 c2 1d be
       -0.4587229 0.03133367 0.099937394 -0.15406047
000170 0b 1b 68 3e 09 b7 07 3e 71 5d de 3d 9b 1e c8 bd
       0.22666566 0.13253416 0.10857666 -0.097714625
000180 e7 10 9e be 07 ee 79 bd 9e 93 94 3d 94 ef 7f 3e
       -0.3087227 -0.061018016 0.07254718 0.24993736
000190 9b 78 57 be 09 bf df 3e d8 aa ca be 61 1f 0e be
       -0.21042101 0.43700436 -0.39583468 -0.13879158
0001a0 e3 8c 3f be b7 2a ab bc 4a 95 b1 3d 7e 27 b5 3e
       -0.18706088 -0.020894391 0.08671053 0.35381693
0001b0 f9 09 96 be e8 24 d4 3e 88 b8 dd be 44 80 ed bd
       -0.29304484 0.41434407 -0.4330485 -0.1159673
0001c0 1e b4 14 be 25 c6 85 bc 1c 5f 0e 3e af 58 99 3e
       -0.14521834 -0.016329834 0.13903469 0.29950473
0001d0 dd a3 55 be 82 39 98 3e c7 d7 23 be 64 d9 52 be
       -0.2086329 0.29731375 -0.16000281 -0.2059074
0001e0 62 55 4c 3e 23 4d f2 ba 05 fe 29 be 3e d9 87 be
       0.19954446 -0.0018486123 -0.16600807 -0.2653293
0001f0 fd 3d 6d 3e 23 6e a6 be 0c 5e 67 3e 4c b6 5b 3e
       0.23168178 -0.32505903 0.2259447 0.2145626
000200 61 b5 cf bd 54 3b 90 be 69 8c b7 3e 7d 90 62 3c
       -0.10142017 -0.28170264 0.35849312 0.013828394
000210 01 6b 66 bd be 4f 9d 3c 42 89 b5 3d fd 02 b3 3d
       -0.05625439 0.019203063 0.088640705 0.08740804
000220 b8 47 24 bc 2b ad de 3d 00 62 bb 3e 71 2b 23 bd
       -0.010026865 0.10872873 0.36598206 -0.03983635
000230 9d 90 9e bc 8d 26 41 be a5 05 ca bc 44 08 4a bd
       -0.019356066 -0.18862362 -0.024660895 -0.04932429
000240 d1 0b 0d 3e b2 ff 47 bd 2e a7 4b be 00 68 8a be
       0.13774039 -0.048827834 -0.19887993 -0.2703247
000250 95 76 8d bd a8 07 a3 3d 38 af d0 3c 54 08 5d 3e
       -0.06907383 0.07960445 0.025474176 0.21585208
000260 e2 1c 03 3d 50 88 24 3d 82 13 ba be 11 c8 a7 3d
       0.032009967 0.04016906 -0.36343008 0.081924565
000270 7b 0b 85 3d 9d 84 42 3d dc 62 e3 3c a5 a8 2a bc
       0.0649633 0.04748975 0.0277571 -0.010416185
000280 db 82 32 be 73 f6 23 3e 82 37 1e 3e d1 01 fa bc
       -0.1743273 0.16011982 0.15450862 -0.030518444
000290 22 21 dc 3d d5 94 68 3a 5d 74 91 bd 7b 01 c0 bc
       0.10748507 0.00088722754 -0.07102273 -0.023438206
0002a0 a3 2b 01 3e 30 97 1a be ba bd be bd a3 f9 8c be
       0.12614302 -0.15096736 -0.09313531 -0.27534208
0002b0 05 ce 17 3e 10 5f 16 3d 72 f7 72 bd 64 79 75 bc
       0.14824684 0.036711752 -0.059318013 -0.014982555
0002c0 d6 77 d1 bd e8 68 c4 3d ed 0c 90 bd 5d 96 02 be
       -0.10227935 0.09590322 -0.070337154 -0.12752672
0002d0 8e 82 85 3e e3 ef 00 be a1 1a 36 bd cc 98 8b 3e
       0.26076168 -0.1259151 -0.04445899 0.27265012
0002e0 f1 bc ff 3d 43 0f c1 bd 5b 24 db bc 24 1d 84 be
       0.124872096 -0.09426739 -0.026750734 -0.25803483
0002f0 3d 8f d1 bc 9b cc 0d be cd cf 97 bd c8 0e 0b 3e
       -0.025580997 -0.13847582 -0.07412682 0.13579857

blocks.0.attn.proj.weight f4 [8, 8]
000000 bd 80 89 bd eb e8 8a 3c 65 a2 06 3c 5a a9 20 bc
       -0.06714008 0.016956767 0.008217429 -0.009806002
000010 ae 3b 37 bd ef 06 60 3d c2 5d 1f bd 89 b5 9c 3c
       -0.04473465 0.054694112 -0.038907774 0.019129531
000020 1e 66 4e 3d 0b d9 07 bc 50 f4 b4 3d 6d 18 6e bc
       0.050390355 -0.008291493 0.088356614 -0.014532191
000030 cd cf 5c 3a 5c a9 83 bd 9b cc 35 3e 66 96 c4 bc
       0.0008423299 -0.06428787 0.17753832 -0.023997497
000040 c4 e5 39 be 9e a5 ad be 7a 1b 48 3e b4 1e a2 3e
       -0.18154055 -0.33915418 0.19541731 0.3166405
000050 c3 62 28 bc cb 45 ea 3d 8a b2 f3 3d 5f 15 ba 3a
       -0.010277453 0.11439093 0.11899288 0.0014197043
000060 30 5c 59 3e cc 48 17 3e 0f e6 8a be 6d 02 2a be
       0.21226573 0.14773864 -0.27128646 -0.16602488
000070 a7 5c 0b 3c d5 a1 af bd 36 33 32 be a5 d8 a7 bd
       0.008505977 -0.08575789 -0.17402348 -0.081956185
000080 fa a1 3a 3d 83 16 8b 3d 96 d3 d3 bd e1 aa b6 bd
       0.04556463 0.06791403 -0.10343091 -0.08919311
000090 d0 87 02 be c8 1b 76 bc af 98 0b 3e 14 62 61 3e
       -0.12747121 -0.015021272 0.13632463 0.2201007
0000a0 01 d8 0e 3d 9e 2c 00 bb 90 ad b6 bd 7a c4 ac bc
       0.034873966 -0.0019557844 -0.08919823 -0.021089781
0000b0 ce 27 e8 3c a0 94 2e be 01 e4 68 be 4f 28 42 be
       0.028339293 -0.17048883 -0.22743227 -0.18960689
0000c0 a0 ee fe 3d 7d 41 dd 3d 91 aa 72 3e 56 e4 60 be
       0.12447858 0.108035065 0.23697878 -0.21962103
0000d0 d2 05 69 3e f7 fd d3 bd 0e c2 ee 3d ac 33 89 bd
       0.22756127 -0.10351174 0.11658107 -0.06699309
0000e0 4f 5f b9 be 0e 91 b4 3d c6 18 48 bd 9a 2d 8a 3d
       -0.36205527 0.088167295 -0.04885175 0.06746979
0000f0 e8 96 34 be 59 c0 8f 3e f2 65 23 bd de ca 5e 3e
       -0.17635691 0.28076437 -0.039892145 0.21757075

blocks.0.attn.proj.bias f4 [8]
000000 94 7a 06 3e 96 19 6d bd c6 54 0d 3d ae a1 18 bd
       0.13132697 -0.05788573 0.034504674 -0.037263565
000010 e0 15 ab bd 29 96 1c 3d f3 4c b6 3c 60 f2 e8 3a
       -0.08353782 0.03822914 0.02225349 0.0017772429

blocks.0.norm2.weight f4 [8]
000000 f2 ec 35 3f f2 7e 86 3f 61 9e 7a 3f 67 48 7f 3f
       0.71064675 1.0507491 0.9789792 0.9971985
000010 17 db 84 3f 89 58 8f 3f a9 06 8d 3f 01 3a 61 3f
       1.0379361 1.1198894 1.1017658 0.8797913

blocks.0.norm2.bias f4 [8]
000000 ec 52 8e be a3 8e 82 3d 66 ab 00 3e a2 4e 59 bd
       -0.2779764 0.06374862 0.12565383 -0.053053506
000010 35 10 75 3c 9f 29 b0 bd 48 24 33 3d 4a 6e 86 3c
       0.014957477 -0.086016886 0.043735772 0.016410012

blocks.0.mlp.fc1.weight f4 [32, 8]
000000 13 b4 26 be a1 85 1c bd 18 12 9a bc 5a cb 1e 3e
       -0.1627963 -0.038213376 -0.018807456 0.1550726
000010 71 5b 08 3d 9c 00 77 be fe ba 99 bb 8f de 44 3e
       0.03329033 -0.24121326 -0.0046914807 0.19225524
000020 83 4a be bd de 9c 8a bc 8f 06 05 3e 24 6b 94 be
       -0.09291556 -0.016920503 0.12990783 -0.28987992
000030 4f be 69 bc a7 5b 53 3e 90 00 dd 3d 8d b0 d2 bc
       -0.0142665645 0.20640431 0.10791123 -0.025718952
000040 b4 d1 86 bd de fb 1c be 04 b9 37 3e 4d 18 37 bb
       -0.065829664 -0.15330455 0.17941672 -0.0027938068
000050 27 48 27 be 1e b9 e8 3d 80 1a 47 3e ff 4f 33 bc
       -0.16336118 0.11363433 0.19443703 -0.0109443655
000060 44 9b 89 be fd 96 bb bc 6f aa 2f be f9 b8 9a 3e
       -0.2687627 -0.022899145 -0.17154859 0.30219248
000070 15 a1 59 be 61 28 6e be 0a d6 bc 3d 09 0b 3e 3e
       -0.21252854 -0.23257591 0.09220512 0.18558897
000080 c2 5c 1c be 0a 54 c8 3b fe 30 74 3e 9e 67 60 be
       -0.1526976 0.006113534 0.23846814 -0.21914527
000090 c7 da 13 be a7 e8 aa bc 5c 64 61 3e dd 19 1b 3e
       -0.14438926 -0.02086289 0.2201094 0.15146585
0000a0 35 a3 bf 3d f0 7f 34 3e 2b b6 32 bc 58 21 dd bd
       0.09357301 0.1762693 -0.01090769 -0.107973754
0000b0 5d ac 97 3d 46 e0 80 bd 3c 51 2f be 9b 67 5f 3d
       0.074059226 -0.06292777 -0.17120832 0.054542165
0000c0 b7 f7 05 bc 7b 1a a6 bc 72 55 3c bc ad a7 e2 bb
       -0.008176736 -0.020276299 -0.011494981 -0.006916961
0000d0 80 8b 2c bc 5f 08 3f bc 32 d1 60 bc 9c ad 76 bc
       -0.010531306 -0.011659711 -0.013721751 -0.01505604
0000e0 48 fa 17 3d 10 bd 52 3d aa 05 25 3e ad 26 6b bd
       0.03710392 0.051449835 0.16115442 -0.05740993
0000f0 e8 5d d8 38 6a 35 55 bc a0 47 e1 bd 7f 5d 51 3b
       0.00010317174 -0.013013223 -0.109999895 0.0031946597
000100 86 7e 48 be ee a4 12 bd cc 30 1c 3e 9d 9d 10 be
       -0.19579515 -0.03580182 0.1525299 -0.14122625
000110 6a 97 25 be 2c c1 90 3d 67 71 81 3e 89 8a 7e 3d
       -0.16171041 0.070680946 0.25281832 0.062143836
000120 cd 0f 0c be 26 49 55 3d 37 7e 01 bd 23 61 c8 bd
       -0.13677903 0.052071713 -0.03161451 -0.09784152
000130 ee db 03 be 72 7f a3 bd 92 33 51 3e d6 79 20 3e
       -0.12876865 -0.07983293 0.20429829 0.15671477
000140 55 fb c5 bc 5e 6b 30 3e 1c fe bd bb 93 58 0e be
       -0.024167696 0.17228457 -0.0057981145 -0.13900976
000150 48 85 07 3c b1 4a 21 3e c8 34 07 bd 85 a0 d6 3c
       0.008271523 0.15751149 -0.03300932 0.026199589
000160 39 c8 6e bd bb 78 c0 bd 31 13 dd 3d 03 4a 0e bd
       -0.058296416 -0.093980275 0.10794676 -0.03473855
000170 57 4e a3 3c 84 eb e6 3d a3 8d 33 3e fa 5a a2 bc
       0.019934816 0.1127539 0.17534499 -0.019818772
000180 ba 06 a9 bd d6 fd c8 bd 22 4a 1d 3e dd 15 ca bd
       -0.08253236 -0.0981404 0.1536031 -0.09867451
000190 e7 26 51 bd 38 c6 18 3e ec e4 5e 3e 67 7c 33 bc
       -0.05106249 0.14919364 0.21767014 -0.010954953
0001a0 7d 15 8b 3c 77 01 46 be c0 28 3a 3e 40 20 f9 bd
       0.01697802 -0.19336496 0.18179607 -0.12164354
0001b0 5d b0 42 bd fd ec 08 3e ec fd 0f 3e 10 f7 cb bb
       -0.047531474 0.13371654 0.14061707 -0.0062245205
0001c0 98 b8 3e bd 92 de bb bd 3c e9 59 be ed b2 d4 3d
       -0.04656276 -0.09173311 -0.21280378 0.1038569
0001d0 4d 4b a7 bc 46 43 18 bd bc 2d 0a 3e 66 b7 3f bd
       -0.020421648 -0.037173532 0.13494009 -0.04680576
0001e0 a5 9e 6d bc 64 f3 21 be 54 0d c9 3d e9 76 33 3d
       -0.014503156 -0.15815502 0.09816995 0.043814573
0001f0 2a c5 c5 bb 21 73 05 3e a8 69 fe 3d be 90 55 bd
       -0.0060354667 0.130322 0.12422496 -0.05213999
000200 c0 03 ca bd 5c f8 30 3d bd 33 8f 3d ef 73 20 be
       -0.098639965 0.043205604 0.0699229 -0.15669225
000210 8c ad 36 bc a1 ba a3 bd d9 38 07 3e 53 3f df 3d
       -0.011149775 -0.07994581 0.1320528 0.1090075
000220 b2 1d 01 3c 7d 32 02 be 2d 66 f0 3d dd d1 c3 bd
       0.007880615 -0.12714572 0.117382385 -0.095615126
000230 fc 02 97 bd ae 54 68 3e 87 d9 5d 3e 18 95 f3 bc
       -0.07373616 0.22688553 0.21665011 -0.02973418
000240 49 b3 74 be 6b fe f1 3d ff 6e 0d be 35 ae f2 3d
       -0.23896517 0.118161045 -0.13811873 0.118496336
000250 28 fe aa 3e f2 da 91 be bd 5a 29 be e9 39 85 3d
       0.3339703 -0.28487355 -0.1653852 0.06505186
000260 ac 5a 1c 3d a2 b3 57 3e 15 1b b9 bc 3c 15 eb bd
       0.03817241 0.21064618 -0.022595922 -0.114786595
000270 ce 6e 24 3e b6 d0 4d be 77 cb a2 bd 57 98 a3 3c
       0.16057894 -0.20099148 -0.07948964 0.019970102
000280 28 95 05 be 40 41 c7 3b d4 e7 21 bd ad 4c 83 3c
       -0.1304518 0.0060807765 -0.03952773 0.016027773
000290 58 91 e6 bd e0 d7 bc bd 49 53 89 3d bd e0 4e 3d
       -0.11258191 -0.092208624 0.067053385 0.050507296
0002a0 4e 03 be 3a 52 82 4e be b9 e7 28 3d 64 f5 cd 3d
       0.0014496834 -0.20166901 0.041236613 0.1005657
0002b0 19 eb 5a 3d 28 db 66 3e 41 74 eb 3c 83 e4 e6 bd
       0.053446863 0.22544539 0.028741958 -0.11274054
0002c0 7f 1b 85 be 5f 06 9f bc 83 17 1d 3e a5 37 74 bd
       -0.2599754 -0.019412218 0.15341 -0.05962338
0002d0 8c 2a 3c be 1a 38 a4 bc e2 11 5b 3e 5e e0 a1 3d
       -0.18375605 -0.020046283 0.2139354 0.07904123
0002e0 3b 62 c8 bd 15 7b 18 3e e7 ba bf bd 91 51 06 3c
       -0.09784361 0.14890702 -0.09361821 0.008198158
0002f0 93 72 63 3e b4 ce 5a be 7f 01 96 bd 3d 3a a0 3d
       0.22211675 -0.21367913 -0.07324504 0.07823608
000300 33 27 81 be 02 80 7a bd c2 5e 5b 3e 4e 8c 32 3b
       -0.2522522 -0.061157234 0.21422866 0.0027244273
000310 44 9b 87 bd b2 91 e6 3d 53 b4 2d 3e d9 47 8f bc
       -0.066214114 0.11258258 0.1696332 -0.017490314
000320 15 b8 3d bd f1 14 c0 bd 56 c2 52 bd 80 6b 67 3e
       -0.046318132 -0.09378994 -0.051454864 0.22599602
000330 51 0f ca 3d ca 1c dc 3d 9f 7c 97 bd 84 b2 ef bd
       0.098662026 0.107476786 -0.073968165 -0.11703971
000340 b7 87 48 bd 0e 0e 52 bd ac 59 1b 3d 52 f7 22 3c
       -0.048957553 -0.051282935 0.037927315 0.009946661
000350 dd ba 0c 3d 33 cc e6 3d 9c db a7 3d bb da 27 bd
       0.034357894 0.11269417 0.08196184 -0.040980082
000360 bf a4 a6 3c da 96 85 3d e6 51 85 be a9 56 09 3e
       0.020342229 0.06522913 -0.26039046 0.13411964
000370 f3 05 51 3d bc f9 98 be 96 c8 8d 3e 74 5f 1d bc
       0.051031064 -0.29878032 0.27692097 -0.009605277
000380 5d 66 9f 3c 06 05 72 3e 4b 4f 6f bd 5e 5a ae bd
       0.01945799 0.23634729 -0.05842523 -0.0851333
000390 60 97 4b 3e 0a b0 6b be bd ef 67 3d 5b 06 de bd
       0.19881964 -0.23016372 0.056625117 -0.10841056
0003a0 aa 09 9d bc ef ed 50 3e ad 02 9b bd 82 74 34 bd
       -0.019169647 0.20403264 -0.0756887 -0.044056423
0003b0 27 52 72 3e bb 03 82 be 65 ab 48 bd 37 59 72 3c
       0.23664151 -0.2539347 -0.04899158 0.014791778
0003c0 8a 59 21 be b3 46 c2 bd fe 2a 18 3e e5 e8 5b bd
       -0.15756813 -0.09486141 0.1486015 -0.053688902
0003d0 d9 c9 a4 bd ad 9f 2d 3e 4f 6f 82 3e c8 ad 5a bc
       -0.08046312 0.16955443 0.25475547 -0.013347097
0003e0 c8 da b5 bc 83 9c dc bd fc 86 ae 3d 39 6e 49 3e
       -0.02219905 -0.1077204 0.0852184 0.19670953
0003f0 c3 9b 1d bc ef d4 3c 3e 04 ca b6 bd 0e 01 13 be
       -0.009619656 0.18440603 -0.0892525 -0.14355871

blocks.0.mlp.fc1.bias f4 [32]
000000 22 11 cc bd 4d fd 46 bd af 3b 09 bc 69 ef 1e bd
       -0.09964205 -0.04858141 -0.008376046 -0.038802538
000010 e7 74 c2 3d 9d 79 65 bd 9a c4 90 bc e0 de 47 3d
       0.094949536 -0.056024183 -0.017671872 0.048796535
000020 e3 c2 26 3d 9f 82 e3 3c 89 4c d1 ba 61 6d 5d bd
       0.040713202 0.027772246 -0.0015968244 -0.05405939
000030 9b f6 82 bd e4 d7 21 bc ad 47 d0 bd 73 6a 0c bd
       -0.063946925 -0.0098781325 -0.10169921 -0.034281205
000040 f4 25 b6 3c f7 dd 2f bd ac 77 28 bd 4e fa cd bd
       0.022234894 -0.04293629 -0.041129753 -0.100575075
000050 6e 45 af bc ad b9 9b 3c 15 b0 28 3d 80 9e 28 be
       -0.021395411 0.019009436 0.04118355 -0.16466713
000060 e8 01 56 bd b6 90 3b bd d3 f2 e0 bd d5 97 14 bd
       -0.05224791 -0.045792304 -0.10983815 -0.03627761
000070 f9 99 f1 bd 03 18 bd bd 0c 20 54 bd d8 bc a1 bc
       -0.11796946 -0.092330955 -0.051788375 -0.019743368

blocks.0.mlp.fc2.weight f4 [8, 32]
000000 c4 e0 c1 bd c4 9f 00 3e 45 40 8c 3e fe 55 4d bd
       -0.09466699 0.12560946 0.27392784 -0.050130837
000010 5b f7 49 3e 2a 35 15 be 95 7c 37 3c 69 11 51 3d
       0.19723265 -0.14571062 0.011199136 0.051041994
000020 82 b6 50 3e 51 90 e5 3d 0f 4d 01 bd 9f 28 fa 3d
       0.20382121 0.11209167 -0.03156763 0.12214779
000030 0f ab 48 3e 59 4d 66 3e 4d e6 c8 bd 2f f2 28 3e
       0.19596504 0.22490443 -0.098095514 0.16498636
000040 4d d0 63 3d 54 8c 4d 3e 21 36 b4 be f8 c6 7a be
       0.055618573 0.20073062 -0.35197547 -0.24489963
000050 a3 e1 20 3d f0 ff 13 3e 78 bb 4f 3e c8 ef 83 be
       0.039277684 0.14453101 0.20286357 -0.25768876
000060 e4 19 5f 3e 11 3d 71 3d 06 cf 1f 3d de 44 a0 be
       0.2178722 0.058896128 0.039015792 -0.31302541
000070 cb 08 95 be 24 45 a2 be 53 68 6e 3e 23 90 28 3e
       -0.2910827 -0.31693375 0.23281984 0.16461234
000080 2e 96 fe bd b9 6a a3 3d d1 ec ca bc 15 9a 9f be
       -0.12430988 0.0797934 -0.024771126 -0.31172243
000090 48 73 34 3e d3 27 25 3e da 6b 18 3c de e1 2a 3d
       0.17622101 0.16128473 0.009303058 0.04171931
0000a0 1f 79 cc 3d ae 17 0d 3e 87 1f 0a 3e 01 2e a3 ba
       0.099840395 0.13778564 0.13488589 -0.0012449623
0000b0 60 dc 2a 3d 73 e3 ce bd 69 f2 ff bd 6b ec 9a bd
       0.041714072 -0.10101976 -0.12497408 -0.075646244
0000c0 88 14 01 3e 4d da 40 bd 10 29 24 3d e0 43 19 3e
       0.12605488 -0.047083188 0.040078223 0.14967299
0000d0 bd f1 46 bd ee 72 15 be 27 fa ab 3d 2b 1d a3 3d
       -0.048570383 -0.14594623 0.08397322 0.07964548
0000e0 e8 a1 a5 3d 03 59 b5 bd 97 b0 c6 3c 17 17 38 be
       0.08087522 -0.08854868 0.024254126 -0.17977558
0000f0 b7 80 ab 3d 00 e8 02 3e 92 93 26 3d a8 bd 73 bd
       0.0837416 0.12783813 0.040668078 -0.059507042
000100 de c6 2c 3e 30 25 29 be b8 81 0b be 86 08 8f 3e
       0.16872737 -0.16518092 -0.13623703 0.2793619
000110 1c 64 26 be 56 e9 19 3d a2 a0 1f 3c 1a 4c cb 3c
       -0.16249126 0.037576042 0.009742888 0.024816561
000120 19 03 1f be 52 2c 54 3d 40 69 b9 bd b4 7c 05 be
       -0.15528525 0.05180008 -0.09053278 -0.13035852
000130 9b 63 19 be b3 bd 1b be d6 b4 25 bb f6 8c 12 be
       -0.14979403 -0.15209083 -0.0025284789 -0.14311585
000140 b9 68 e9 bb 0c c5 57 be 6e 64 ef bd 91 8e c7 3d
       -0.0071230796 -0.21071261 -0.11689077 0.09743989
000150 cc 19 a4 3d 12 93 6a be dd be 93 bd 81 09 c7 3b
       0.08012733 -0.22907665 -0.07214139 0.006074131
000160 0f b2 b3 bd ed 27 3a be d7 03 b4 bd 55 e2 81 3d
       -0.08774196 -0.18179293 -0.08789795 0.063419975
000170 37 aa d7 3d a4 e1 e9 3c cf 38 22 be 1e e6 09 be
       0.10530513 0.028549977 -0.15841983 -0.13466689
000180 2c b4 b0 3d 61 80 72 bd 62 d9 0d 3c a2 97 8e 3d
       0.08628115 -0.059204463 0.008657785 0.069625154
000190 ed 29 fe bd 08 19 10 bd c1 94 40 3c 01 b4 ff 3b
       -0.124103405 -0.03518012 0.011754216 0.0078034406
0001a0 2c 29 70 bd 96 eb 06 be db 66 ab bd 4f 7a ed bb
       -0.058633015 -0.13175806 -0.083692275 -0.0072472463
0001b0 35 46 50 bc f2 d2 98 bb 51 ad ba bc 96 9a e1 3c
       -0.012712051 -0.0046638185 -0.022787722 0.027539533
0001c0 57 b8 2b bd b4 98 bd 3b 09 3b 4d 3e 3a 34 10 3d
       -0.041923847 0.005786026 0.20042051 0.035206057
0001d0 14 38 83 3c 83 a0 9f 3d b9 df c0 bc 45 0c c9 3d
       0.016017951 0.07794287 -0.02354418 0.09816793
0001e0 f4 12 dd 3b 5f b7 c6 3d 25 67 d6 3b fd d0 a7 3d
       0.006746644 0.09702944 0.0065430575 0.08194158
0001f0 70 f9 82 3d 5c 73 9f 3d a1 43 a9 bc 57 10 d1 3d
       0.06395233 0.07785675 -0.02066213 0.10208195
000200 59 92 28 bd 31 d7 1d 3e 23 86 1d 3d e1 76 40 bd
       -0.041155193 0.1541412 0.038458 -0.04698837
000210 48 3f 29 3c 0f 01 8b bc b3 55 8a 3c ec 59 4b bd
       0.010330029 -0.016968278 0.016886568 -0.049646303
000220 ad e5 26 3d 52 ea 32 bd 9a 66 4b bc ee 80 67 bc
       0.04074638 -0.043680497 -0.012414599 -0.01412986
000230 84 f4 66 3d 2a 20 ab 3d 6c 7d e1 3d 8e 9e 83 bc
       0.056385532 0.08355744 0.110102504 -0.016066816
000240 2a da 79 3c df da 9b 3d 01 2b e2 3d 80 21 70 3d
       0.015249768 0.07610106 0.110433586 0.058625698
000250 3c 1a 8d 3c fa 57 98 bd 65 86 1c bd 33 7f 94 3d
       0.017224424 -0.07438655 -0.038214106 0.07250824
000260 3d 22 45 bd 7f 3e b7 bd c4 bd 1a bd ac 74 f8 3d
       -0.048128355 -0.08947467 -0.03777863 0.121316284
000270 85 8b 12 3e 3f 94 f8 3d c2 34 53 3d 1f 6a 39 be
       0.14311035 0.12137651 0.051563986 -0.18106888
000280 a3 09 e3 bd cf 5f c0 3d 7d 54 d1 bd ef 88 42 be
       -0.110858224 0.09393274 -0.10221193 -0.18997549
000290 25 45 2c be 12 cb 40 3c f0 b9 4b 3c d7 c4 87 3c
       -0.16823252 0.011767166 0.012434468 0.016573353
0002a0 27 f1 12 be 40 34 89 be f5 d7 0f 3d d7 e2 33 bd
       -0.14349805 -0.26797676 0.035118062 -0.043917503
0002b0 b9 b5 34 bd bc 2b 1f bd a0 5d 61 3d e3 e3 c7 bc
       -0.044118617 -0.038860068 0.05502093 -0.024400657
0002c0 eb 94 0d be b3 6c e9 bc b2 3d a0 3d f0 76 81 3c
       -0.13826339 -0.028494215 0.078242674 0.015803784
0002d0 45 59 e6 bd 94 56 4d 3d 1b 4c 46 be 86 62 13 3d
       -0.112474956 0.050131395 -0.1936497 0.03598263
0002e0 f6 29 fb bd 03 3e 16 3e fb b7 0b 3c 41 c2 5d bd
       -0.12263863 0.14672093 0.008527751 -0.054140333
0002f0 28 ab 5f 3d 40 3c 39 3c 74 28 b7 bd 39 69 b8 3d
       0.054606587 0.011305869 -0.08943263 0.09004445
000300 b5 f1 85 bd 70 2c af 3c f8 4c a4 bc d7 01 c4 3d
       -0.065402426 0.021383494 -0.020056233 0.095706634
000310 0b a1 18 be 93 78 01 3b b7 c8 39 3c bc 20 1a bd
       -0.14905183 0.0019755706 0.011339358 -0.037628874
000320 4f 1a 7a bc 17 18 34 bd 62 bd e9 3c 55 0b 26 3d
       -0.0152650615 -0.043968286 0.028532688 0.04053815
000330 f1 5d 18 3d 72 2c 02 bd a5 c9 95 3d ac 58 97 3b
       0.037198965 -0.031780668 0.07313851 0.004618725
000340 d8 d8 c3 bd 92 74 a1 3c fa 83 15 ba 73 9e 3d 3d
       -0.09562844 0.019708905 -0.0005703565 0.046293687
000350 0f 7f ae bc 8c 1e d1 bc 52 c5 ff bc dc 7e 13 3d
       -0.02130082 -0.025527261 -0.03122202 0.036009654
000360 d1 0e ec 3b 91 71 74 bd e2 af 12 3d d0 9c 4d 3e
       0.0072039147 -0.059678618 0.035812266 0.2007935
000370 b8 98 eb 3d 2b 0f 98 3d f0 ab 77 3d 71 a4 eb bd
       0.11503738 0.07424768 0.060466707 -0.11505974
000380 89 dd 93 bc be be 3b bd e2 dc 7e 3b 4a 29 ab 3d
       -0.018049972 -0.045836203 0.003888898 0.08357485
000390 a0 3e 22 3e 48 e8 02 bc 95 55 15 3c bb 75 a7 3d
       0.15844202 -0.0079899505 0.009114643 0.08176752
0003a0 db af 8b 3d 52 1a d8 3d 48 d8 47 3c f9 02 ad bc
       0.06820651 0.10551895 0.012197562 -0.021119582
0003b0 3d 8d ec bc 0c b1 79 3d b3 50 8f 3d fb 5e 11 ba
       -0.028875941 0.06095986 0.06997814 -0.0005545464
0003c0 3a 8f 4f 3d 51 a8 48 bd 0c 3a 7c bd 01 eb de bd
       0.0506737 -0.048988644 -0.061578795 -0.10884667
0003d0 74 cd e2 3c 1e 79 1f 3d f0 28 d3 3d 20 c6 01 be
       0.027685858 0.038933866 0.103105426 -0.12673235
0003e0 fc 2b 10 bc 37 67 7a 3d 6a dc 06 bd 35 12 b1 3d
       -0.008799549 0.06113359 -0.032925047 0.08646051
0003f0 38 b0 49 be 39 37 ec bd 63 bf 0e bd 4b 32 0a 3d
       -0.19696128 -0.115339704 -0.03485049 0.03373937

blocks.0.mlp.fc2.bias f4 [8]
000000 92 12 ea 3d c5 73 e4 bc 59 63 ce bd 73 21 f0 bb
       0.11429323 -0.027887234 -0.10077543 -0.007328206
000010 f8 6e a9 bd e3 56 8c bd 51 18 7a bd f8 e3 0a 3e
       -0.08273119 -0.0685251 -0.061058346 0.13563526

blocks.1.norm1.weight f4 [8]
000000 d8 92 84 3f 79 25 9e 3f ab 41 93 3f e9 71 91 3f
       1.0357313 1.2355186 1.1504415 1.1362888
000010 f1 09 76 3f 13 5b 90 3f bf 5d 91 3f ee 6c a1 3f
       0.9610892 1.1277794 1.1356734 1.2611368

blocks.1.norm1.bias f4 [8]
000000 19 68 1b bd e8 14 9f 3d 9d 04 8f 3d 3b dc 8c bd
       -0.037941072 0.077676594 0.06983302 -0.06877943
000010 a2 04 0f 3d de b9 8a bd 42 c6 1d 3d 87 36 70 bd
       0.034916528 -0.067737326 0.03851915 -0.05864575

blocks.1.attn.qkv.weight f4 [24, 8]
000000 a5 20 44 3e 49 ac 20 bd a3 be 68 3c ab b7 ca bd
       0.19153078 -0.039226804 0.014205608 -0.09898313
000010 3a fc 17 be 2d b8 41 be 6a 5d 98 3d 15 31 bd be
       -0.1484231 -0.18917914 0.07439692 -0.3695151
000020 43 9c 51 be 02 d5 a1 bd ba 8b aa bd 9e ce 6b bd
       -0.20469765 -0.07901956 -0.08327432 -0.057570092
000030 56 2c 5c 3e 9e 4c 0b 3e a4 34 ac bd 8f 48 da 3e
       0.21501288 0.13603446 -0.08408478 0.42633483
000040 f9 c7 6f 3e ea 5a 79 bc 6f 0d 28 3d 2b 93 74 bd
       0.23416127 -0.0152194295 0.041028436 -0.059710663
000050 8e 6f 33 be 9e 85 37 be 9f f3 95 3d 79 ad cd be
       -0.17523023 -0.17922065 0.07321858 -0.40171412
000060 d6 72 3c be b8 18 ab 3d 3f 05 d8 bc de 34 01 3d
       -0.18403181 0.08354324 -0.026369689 0.03154456
000070 19 60 4e 3e f4 fb 0b 3e 62 2a c6 bd 42 b3 89 3e
       0.20153846 0.13670331 -0.09676053 0.26894575
000080 59 e6 86 be 31 83 ef 3e 8d 1f 9e 3d c5 00 77 3e
       -0.26347616 0.4677978 0.077208616 0.24121387
000090 d8 bd 0e be 88 af 28 3e 57 a8 bd bc 65 eb 9e be
       -0.13939607 0.1647321 -0.02315156 -0.31038967
0000a0 ac c8 82 be d5 b2 f2 3e a3 4a a0 3d 0e 2e 5b 3e
       -0.25543725 0.47402063 0.07826736 0.21404287
0000b0 c3 39 1a be f3 a8 33 3e 4a 6c 13 3c f4 1f b3 be
       -0.15061097 0.17544918 0.008997986 -0.34985316
0000c0 1b a5 93 3e 56 cc d8 be 8e 6c ca bc a2 e4 8e be
       0.28836903 -0.42343396 -0.024709966 -0.27908808
0000d0 0a 97 5b 3e 2b ec a8 be 7d e1 da bd 54 e5 cf 3e
       0.21444336 -0.32992682 -0.1068754 0.4060465
0000e0 6d d0 11 be b3 e8 b2 bc ff 2d d3 be 54 36 e2 3e
       -0.14239664 -0.021839475 -0.4124603 0.44182074
0000f0 b1 9e 32 3d ef 6e 52 be a1 cc 4e 3c 5a 38 92 3e
       0.04360837 -0.2055013 0.0126220295 0.28558618
000100 54 4f b1 be be 35 84 3e 89 7b 18 3c 9a e4 ea 3d
       -0.34630835 0.25822252 0.009306797 0.114693835
000110 c8 3f 33 3e 15 9c 78 3d 07 af 9d bd 4c e6 21 be
       0.175048 0.060695726 -0.076993994 -0.15810508
000120 4b 65 b0 3e 3d 0e 67 be 22 b4 a3 bc c1 5f 0c be
       0.3445228 -0.22564025 -0.019983355 -0.13708402
000130 ef dc 4f be 3f 93 0e be 88 bf ff 3d 70 5e 5d 3e
       -0.20299123 -0.13923357 0.124877036 0.21618056
000140 b5 38 df be 72 49 99 3e 83 53 0a 3c dd c8 05 3e
       -0.43597952 0.29938847 0.008442762 0.13064905
000150 f1 30 45 3e c7 f2 b5 3d 5e b8 eb bd 39 ac 48 be
       0.19256951 0.08884197 -0.115097746 -0.19596948
000160 9c 64 be 3e 34 44 63 be 7a 05 e9 bc 5d ba 02 be
       0.37186134 -0.22193986 -0.028444994 -0.12766404
000170 e5 17 f0 bd 8b 3c a6 bd c4 24 90 3d 4d 98 0f 3e
       -0.117233075 -0.081170164 0.070382625 0.14022942
000180 60 80 0f 3d 74 84 4a 3b f0 4b 46 3d ba 06 00 3f
       0.035034537 0.0030901702 0.048412263 0.50010264
000190 57 84 66 3d c2 d1 00 3d d9 6d db bd 56 01 5a be
       0.056278553 0.03145004 -0.10714311 -0.21289572
0001a0 6d 98 29 3b 7f ab 5a bc da c6 86 3d 39 ff 05 3f
       0.0025878206 -0.013346552 0.06580897 0.52342564
0001b0 0d 41 54 3d 19 23 4c 3d 17 ea ee bd a2 80 63 be
       0.05181985 0.04983816 -0.11665743 -0.22217038
0001c0 35 6b 29 3d fe 61 81 3d 2d 75 9f 3a 8c 16 0c bf
       0.041362006 0.06317519 0.0012165658 -0.54721904
0001d0 99 e9 33 be e9 3e 87 bd ac 79 29 3e de 6d 71 3e
       -0.17569579 -0.06603796 0.1655032 0.23577067
0001e0 19 3a fc 3e 70 8c 78 be 17 b9 5b be ac 5d 8d be
       0.49263075 -0.24272323 -0.21457325 -0.27610528
0001f0 58 ce e5 bd 91 29 bd 3d 9c 89 05 be a3 75 93 3e
       -0.112209976 0.09236444 -0.13040775 0.28800687
000200 7f ca 6b bd b6 d1 53 3c b0 c9 5d be 83 4d 18 3e
       -0.057566162 0.012928417 -0.21658969 0.14873318
000210 3f 07 a4 3d 0e 2b 20 3e 2b 27 23 be d8 61 5b bd
       0.080091946 0.15641424 -0.1593291 -0.053560108
000220 53 05 a6 ba da 3e 96 3c 62 87 44 3e 0c 8c 1a be
       -0.0012666382 0.018340517 0.1919227 -0.15092486
000230 87 5a ef bd 74 80 03 be 38 01 bf 3d 80 74 e1 bd
       -0.116871886 -0.1284197 0.09326404 -0.11008549
000240 45 cb 2f 3d 98 4c d0 3c e4 8d 6b 3e 8e 75 80 be
       0.042918462 0.025427148 0.23003346 -0.25089687
000250 39 d6 96 bd 4b af 5c be c8 08 36 3e b7 84 3a bd
       -0.073650785 -0.21551244 0.17776787 -0.045536723
000260 31 ea a9 3b a5 22 ea 3c cf a0 d5 bd ae 23 4f 3e
       0.0051853885 0.028580973 -0.104310624 0.20228454
000270 be 45 72 be 8b da a0 3d ee 2e 8f 3c 26 d9 10 3e
       -0.23659417 0.07854184 0.017478433 0.14145336
000280 ef f2 55 bd 59 a6 53 be 49 89 76 3d 34 2c 3b bd
       -0.052233633 -0.20668925 0.06018952 -0.045696452
000290 45 41 66 bd 9e 60 a5 be 83 3a 98 3e 31 57 6a 3e
       -0.05621459 -0.32300276 0.2973214 0.22884823
0002a0 a4 7a 4d 3d 83 4e 23 be 8a 22 b3 be 65 e2 38 3e
       0.050165787 -0.15947919 -0.3498729 0.18055113
0002b0 73 42 f6 bc df 74 5a bd f9 9e 1a 3e c5 bf ac 3d
       -0.030060982 -0.053334113 0.15099706 0.08435015
0002c0 44 bb 3a 3d 48 a8 01 3e d8 28 43 be 8c 41 37 3d
       0.045588747 0.1266185 -0.1905855 0.044740245
0002d0 7e 47 a2 3d 1a b4 85 3e 37 d9 71 be fc 6a 35 be
       0.07923792 0.2611397 -0.23618017 -0.17716593
0002e0 88 a8 65 bd e0 a5 21 be f0 14 34 3e 52 23 cd bd
       -0.056068927 -0.15785933 0.17586112 -0.100165024
0002f0 b0 70 bd 3b 22 a6 6c be d3 97 8f 3e a7 35 3d 3e
       0.0057812557 -0.2311025 0.2804552 0.18477498

blocks.1.attn.proj.weight f4 [8, 8]
000000 a4 85 08 be 59 c0 3a 3d 69 ca cc 3d 9f 8d 20 be
       -0.1333223 0.045593593 0.09999544 -0.15679024
000010 df b5 2f 3c f6 d8 c2 bd 20 82 a0 bd a9 66 51 3d
       0.010724514 -0.09514038 -0.078373194 0.051123295
000020 4e 38 82 bd 64 09 b7 3d 87 d5 a6 3d 6a f4 83 3c
       -0.063583955 0.08937338 0.08146196 0.016107757
000030 bb 01 30 3d 47 e0 c5 3d 4a 3b b4 3c f0 e3 28 3d
       0.0429704 0.09661918 0.022000927 0.041233003
000040 10 14 4c 3e 86 cb 17 be 2d 01 85 be 88 ec a0 3d
       0.19929528 -0.14823732 -0.2597746 0.07857615
000050 1b 91 a3 be a5 bc 7c bc bf 91 82 3e 16 87 96 be
       -0.31946644 -0.015425836 0.2550182 -0.29399937
000060 c7 d6 81 bd b6 01 dc 3d 38 61 1d 3e 02 2c 82 be
       -0.06339794 0.10742514 0.15369117 -0.254242
000070 fa fa 55 3e b1 00 0f bd 7c 34 5b be 2e da 72 3e
       0.20896521 -0.03491277 -0.2140674 0.23716041
000080 4e 31 88 be a3 97 1e 3e c8 15 74 3e 12 c5 d6 bc
       -0.26600116 0.15487532 0.23836434 -0.026217017
000090 94 67 19 3d ba 27 b2 3e d9 46 e7 bc 32 35 d0 bc
       0.037452295 0.34795934 -0.028232025 -0.02541599
0000a0 c3 e0 24 3e ac 6d 11 be 1b 80 26 be 4e 07 bb bd
       0.16101365 -0.14201993 -0.16259806 -0.09132253
0000b0 1f 6a 03 be e3 94 86 be ea 64 30 3d 6b 6b ff bc
       -0.1283345 -0.26285467 0.04306499 -0.03117915
0000c0 cd 57 1d bc a2 1f a4 3d df bd 8a bc c9 9c f2 3d
       -0.009603453 0.08013846 -0.01693624 0.11846311
0000d0 84 11 36 3e 5d 3a ba 3d 30 1e 29 be ab ff d4 3d
       0.17780119 0.09093163 -0.16515422 0.10400327
0000e0 41 3a 06 3d 95 0b f2 bd a6 50 e7 bd f4 35 2b 3e
       0.0327704 -0.11818615 -0.11294679 0.167198
0000f0 f5 ad f9 bd 32 81 9e 3d d6 e0 19 3e a5 ba 16 be
       -0.12191383 0.07739486 0.15027174 -0.14719637

blocks.1.attn.proj.bias f4 [8]
000000 e8 25 ac bd 0d 03 08 bd cb ba c4 3c dc 70 22 bd
       -0.084056675 -0.033206034 0.024014851 -0.039658412
000010 68 7d 12 3c c5 c1 0e be fc bd 01 3e 27 32 06 3e
       0.008941032 -0.13941105 0.1267013 0.13105069

blocks.1.norm2.weight f4 [8]
000000 23 cc 8a 3f 7a e9 87 3f e1 21 65 3f 2a 45 81 3f
       1.0843548 1.0618126 0.8950482 1.0099232
000010 de 8c 7a 3f a4 aa 81 3f ee 28 56 3f 81 1f 7e 3f
       0.97871196 1.01302 0.83656204 0.9926682

blocks.1.norm2.bias f4 [8]
000000 35 86 dc bd fb ff e0 3c f1 9a 26 3e f7 cc f1 bc
       -0.107677855 0.027465811 0.16270043 -0.02951668
000010 e9 f9 d3 bc 57 dd 20 3b b8 da 24 3d e1 cd df 3a
       -0.025876002 0.0024545991 0.04024765 0.0017074907
